[net]
width=640
height=640
channels=3
letter_box=1

# Conv

[convolutional]
batch_normalize=1
filters=48
size=6
stride=2
pad=2
activation=silu

# Conv

[convolutional]
batch_normalize=1
filters=96
size=3
stride=2
pad=1
activation=silu

# C3

[convolutional]
batch_normalize=1
filters=48
size=1
stride=1
pad=0
activation=silu

[route]
layers=-2

[convolutional]
batch_normalize=1
filters=48
size=1
stride=1
pad=0
activation=silu

[convolutional]
batch_normalize=1
filters=48
size=1
stride=1
pad=0
activation=silu

[convolutional]
batch_normalize=1
filters=48
size=3
stride=1
pad=1
activation=silu

[shortcut]
from=-3
activation=linear

[convolutional]
batch_normalize=1
filters=48
size=1
stride=1
pad=0
activation=silu

[convolutional]
batch_normalize=1
filters=48
size=3
stride=1
pad=1
activation=silu

[shortcut]
from=-3
activation=linear

[route]
layers=-1, -9

[convolutional]
batch_normalize=1
filters=96
size=1
stride=1
pad=0
activation=silu

# Conv

[convolutional]
batch_normalize=1
filters=192
size=3
stride=2
pad=1
activation=silu

# C3

[convolutional]
batch_normalize=1
filters=96
size=1
stride=1
pad=0
activation=silu

[route]
layers=-2

[convolutional]
batch_normalize=1
filters=96
size=1
stride=1
pad=0
activation=silu

[convolutional]
batch_normalize=1
filters=96
size=1
stride=1
pad=0
activation=silu

[convolutional]
batch_normalize=1
filters=96
size=3
stride=1
pad=1
activation=silu

[shortcut]
from=-3
activation=linear

[convolutional]
batch_normalize=1
filters=96
size=1
stride=1
pad=0
activation=silu

[convolutional]
batch_normalize=1
filters=96
size=3
stride=1
pad=1
activation=silu

[shortcut]
from=-3
activation=linear

[convolutional]
batch_normalize=1
filters=96
size=1
stride=1
pad=0
activation=silu

[convolutional]
batch_normalize=1
filters=96
size=3
stride=1
pad=1
activation=silu

[shortcut]
from=-3
activation=linear

[convolutional]
batch_normalize=1
filters=96
size=1
stride=1
pad=0
activation=silu

[convolutional]
batch_normalize=1
filters=96
size=3
stride=1
pad=1
activation=silu

[shortcut]
from=-3
activation=linear

[route]
layers=-1, -15

[convolutional]
batch_normalize=1
filters=192
size=1
stride=1
pad=0
activation=silu

# Conv

[convolutional]
batch_normalize=1
filters=384
size=3
stride=2
pad=1
activation=silu

# C3

[convolutional]
batch_normalize=1
filters=192
size=1
stride=1
pad=0
activation=silu

[route]
layers=-2

[convolutional]
batch_normalize=1
filters=192
size=1
stride=1
pad=0
activation=silu

[convolutional]
batch_normalize=1
filters=192
size=1
stride=1
pad=0
activation=silu

[convolutional]
batch_normalize=1
filters=192
size=3
stride=1
pad=1
activation=silu

[shortcut]
from=-3
activation=linear

[convolutional]
batch_normalize=1
filters=192
size=1
stride=1
pad=0
activation=silu

[convolutional]
batch_normalize=1
filters=192
size=3
stride=1
pad=1
activation=silu

[shortcut]
from=-3
activation=linear

[convolutional]
batch_normalize=1
filters=192
size=1
stride=1
pad=0
activation=silu

[convolutional]
batch_normalize=1
filters=192
size=3
stride=1
pad=1
activation=silu

[shortcut]
from=-3
activation=linear

[convolutional]
batch_normalize=1
filters=192
size=1
stride=1
pad=0
activation=silu

[convolutional]
batch_normalize=1
filters=192
size=3
stride=1
pad=1
activation=silu

[shortcut]
from=-3
activation=linear

[convolutional]
batch_normalize=1
filters=192
size=1
stride=1
pad=0
activation=silu

[convolutional]
batch_normalize=1
filters=192
size=3
stride=1
pad=1
activation=silu

[shortcut]
from=-3
activation=linear

[convolutional]
batch_normalize=1
filters=192
size=1
stride=1
pad=0
activation=silu

[convolutional]
batch_normalize=1
filters=192
size=3
stride=1
pad=1
activation=silu

[shortcut]
from=-3
activation=linear

[route]
layers=-1, -21

[convolutional]
batch_normalize=1
filters=384
size=1
stride=1
pad=0
activation=silu

# Conv

[convolutional]
batch_normalize=1
filters=768
size=3
stride=2
pad=1
activation=silu

# C3

[convolutional]
batch_normalize=1
filters=384
size=1
stride=1
pad=0
activation=silu

[route]
layers=-2

[convolutional]
batch_normalize=1
filters=384
size=1
stride=1
pad=0
activation=silu

[convolutional]
batch_normalize=1
filters=384
size=1
stride=1
pad=0
activation=silu

[convolutional]
batch_normalize=1
filters=384
size=3
stride=1
pad=1
activation=silu

[shortcut]
from=-3
activation=linear

[convolutional]
batch_normalize=1
filters=384
size=1
stride=1
pad=0
activation=silu

[convolutional]
batch_normalize=1
filters=384
size=3
stride=1
pad=1
activation=silu

[shortcut]
from=-3
activation=linear

[route]
layers=-1, -9

[convolutional]
batch_normalize=1
filters=768
size=1
stride=1
pad=0
activation=silu

# SPPF

[convolutional]
batch_normalize=1
filters=384
size=1
stride=1
pad=0
activation=silu

[maxpool]
stride=1
size=5

[maxpool]
stride=1
size=5

[maxpool]
stride=1
size=5

[route]
layers=-4, -3, -2, -1

[convolutional]
batch_normalize=1
filters=768
size=1
stride=1
pad=0
activation=silu

# Conv

[convolutional]
batch_normalize=1
filters=384
size=1
stride=1
pad=0
activation=silu

# Upsample

[upsample]
stride=2

# Concat

[route]
layers=-1, 54

# C3

[convolutional]
batch_normalize=1
filters=192
size=1
stride=1
pad=0
activation=silu

[route]
layers=-2

[convolutional]
batch_normalize=1
filters=192
size=1
stride=1
pad=0
activation=silu

[convolutional]
batch_normalize=1
filters=192
size=1
stride=1
pad=0
activation=silu

[convolutional]
batch_normalize=1
filters=192
size=3
stride=1
pad=1
activation=silu

[convolutional]
batch_normalize=1
filters=192
size=1
stride=1
pad=0
activation=silu

[convolutional]
batch_normalize=1
filters=192
size=3
stride=1
pad=1
activation=silu

[route]
layers=-1, -7

[convolutional]
batch_normalize=1
filters=384
size=1
stride=1
pad=0
activation=silu

# Conv

[convolutional]
batch_normalize=1
filters=192
size=1
stride=1
pad=0
activation=silu

# Upsample

[upsample]
stride=2

# Concat

[route]
layers=-1, 30

# C3

[convolutional]
batch_normalize=1
filters=96
size=1
stride=1
pad=0
activation=silu

[route]
layers=-2

[convolutional]
batch_normalize=1
filters=96
size=1
stride=1
pad=0
activation=silu

[convolutional]
batch_normalize=1
filters=96
size=1
stride=1
pad=0
activation=silu

[convolutional]
batch_normalize=1
filters=96
size=3
stride=1
pad=1
activation=silu

[convolutional]
batch_normalize=1
filters=96
size=1
stride=1
pad=0
activation=silu

[convolutional]
batch_normalize=1
filters=96
size=3
stride=1
pad=1
activation=silu

[route]
layers=-1, -7

[convolutional]
batch_normalize=1
filters=192
size=1
stride=1
pad=0
activation=silu

# Conv

[convolutional]
batch_normalize=1
filters=192
size=3
stride=2
pad=1
activation=silu

# Concat

[route]
layers=-1, 85

# C3

[convolutional]
batch_normalize=1
filters=192
size=1
stride=1
pad=0
activation=silu

[route]
layers=-2

[convolutional]
batch_normalize=1
filters=192
size=1
stride=1
pad=0
activation=silu

[convolutional]
batch_normalize=1
filters=192
size=1
stride=1
pad=0
activation=silu

[convolutional]
batch_normalize=1
filters=192
size=3
stride=1
pad=1
activation=silu

[convolutional]
batch_normalize=1
filters=192
size=1
stride=1
pad=0
activation=silu

[convolutional]
batch_normalize=1
filters=192
size=3
stride=1
pad=1
activation=silu

[route]
layers=-1, -7

[convolutional]
batch_normalize=1
filters=384
size=1
stride=1
pad=0
activation=silu

# Conv

[convolutional]
batch_normalize=1
filters=384
size=3
stride=2
pad=1
activation=silu

# Concat

[route]
layers=-1, 73

# C3

[convolutional]
batch_normalize=1
filters=384
size=1
stride=1
pad=0
activation=silu

[route]
layers=-2

[convolutional]
batch_normalize=1
filters=384
size=1
stride=1
pad=0
activation=silu

[convolutional]
batch_normalize=1
filters=384
size=1
stride=1
pad=0
activation=silu

[convolutional]
batch_normalize=1
filters=384
size=3
stride=1
pad=1
activation=silu

[convolutional]
batch_normalize=1
filters=384
size=1
stride=1
pad=0
activation=silu

[convolutional]
batch_normalize=1
filters=384
size=3
stride=1
pad=1
activation=silu

[route]
layers=-1, -7

[convolutional]
batch_normalize=1
filters=768
size=1
stride=1
pad=0
activation=silu

# Detect

[route]
layers=96

[convolutional]
filters=255
size=1
stride=1
pad=0
activation=logistic

[yolo]
mask=0, 1, 2
anchors=… classes=80
num=9
scale_x_y=2.0
new_coords=1

[route]
layers=107

[convolutional]
filters=255
size=1
stride=1
pad=0
activation=logistic

[yolo]
mask=3, 4, 5
anchors=… classes=80
num=9
scale_x_y=2.0
new_coords=1

[route]
layers=118

[convolutional]
filters=255
size=1
stride=1
pad=0
activation=logistic

[yolo]
mask=6, 7, 8
anchors=… classes=80
num=9
scale_x_y=2.0
new_coords=1
